model/model_1680180420.pt (torch, 21975 bytes, 6 tensors)

layers.0.weight f4 [10, 64]
00000000: 43ec 963e 81df f9bc 4c7f b83d 2cd3 debd
00000010: 99ae cfbd e70d 10be e374 42bc 36f4 f439
00000020: 96ee 7fbe 6ff2 6a3e c277 893d 02d5 44be
00000030: 5f1a 7ebe 159d 943e 2a97 00bd 5518 403c
00000040: 13af 313e 1dfd 65bd e801 71be 418d f43d
00000050: e6a0 ad3d 1d5a 81be be16 593d fc18 973b
00000060: 863c 48bc 5b1d a73d 797a aebc f851 37be
00000070: 82c4 bebd 4eb3 76be cb2e 2ebe b2c9 8a3e
00000080: 550c 123d 66f1 ebbd a659 d33d dad9 88be
00000090: a64b c23e 6254 c0bc 8c22 96be 7530 e33d
000000a0: 1b21 a8bd 2cc5 a3bd c0b8 e03d 5aef 3d3d
000000b0: 00b3 ad3e b672 1e3d aea2 1d3d 8b0b 28bd
000000c0: b62f 8cbe 2dde 00be 439e 55be 0728 803e
000000d0: 28d9 213d b106 90be 7484 1a3e 90c6 91be
000000e0: 2ab9 9bbe e003 1dbe e92a 96bc cb3d f4bd
000000f0: 3cb6 57be a866 5abe 266c 5abe 401d 8c3d
00000100: c786 34be e970 0cbe 4d0c 33be 6aa5 ae3d
00000110: 9761 0f3d 6d7c 03bd 0f6a 5c3d 2900 14be
00000120: 5ed0 0abd 550b 27be bec1 29bd 189d 803e
00000130: 3a84 a2bd 8188 4dbe ffb6 873e 74e5 a6bc
00000140: 2a2f 70be d5a8 07be e61d 0ebe dbac e73d
00000150: 68c6 3b3e c666 0e3e 126a 433e 7946 d13d
00000160: 8cde 223e 826e 353c d357 65be d737 1dbd
00000170: b5e7 2cbe ef05 323e 3a8d 1fbe 1875 f4bd
00000180: 97a7 6e3e 9485 1fbd 8102 37be 00cd 59be
00000190: 4e8e 28be d914 6dbe e6f4 7c3c 546d 803b
000001a0: 29b1 1ebe 4345 823e c9f3 a63d 31a7 4b3e
000001b0: 61d0 0fbe 785a cbbc 0a7d 213d 125b 6fbd
000001c0: c2d7 4bbe 0925 f33c c8bc 623d cc71 aa3d
000001d0: 1eab 073e fcd7 5a3e 376b 043e 889c 72bd
000001e0: d317 f63d 92dc e73d 213c 893d e94f 2cbe
000001f0: b267 4dbd 458e 463e f3d8 2abe d9af 203e
00000200: 5820 823d 9ede 7bbe 39fd 223e 3f09 ef3d
00000210: 463b 9ebe 685c 5f3e 9561 34be 9942 4b3d
00000220: 549a 7c3e cb26 03be 7e7b 053d a486 47bd
00000230: 0842 e53d dafe 22be e753 813e 9e9d 9cbd
00000240: 0604 9e3d f8d1 fabb 3bdb 9c3d 5ada 16be
00000250: 90f5 153d 9584 d0bd ba03 f4bd 4d3b 203e
00000260: e052 503e ecff 95be 4ef4 21be 4725 68be
00000270: e41c 063e 9ed4 7dbe 87b7 8e3d 4f95 0abe
00000280: ddef 9c3d 2805 173e 355c 59be 70b5 2dbe
00000290: ec61 103e bad2 0fbd 30f7 5c3d ad47 823e
000002a0: 18b5 123e 0cea 503e b5b1 6fbd 97b7 493d
000002b0: 9c8a 853e a27a 4a3d bcc3 2f3e e7fc 6bbe
000002c0: 56da e53c 8ce8 743e acc6 4ebe adc5 32be
000002d0: dc0a a93c 6592 ce3d 256e 6dbe 15b0 203c
000002e0: d3e5 27be e8b5 483e 2363 843e 5dcd 65be
000002f0: 06ff 923d 14a9 44be 8135 6b3d 9553 5fbe
00000300: 6e89 e4bd ac0b 12be b3e8 773e 139c 483e
00000310: 9083 853d 2228 86bd bbec babd 98e6 273e
00000320: 74f0 673d 6598 953e 309a 1d3e 9739 8bbe
00000330: 44b5 cf3d 8779 183d 8101 0d3d 45b4 bb3b
00000340: 58d3 963d 1555 633e 0115 033e f00d 903d
00000350: c145 813b 0c9d 10bd 36d2 36be 788d 77be
00000360: 58d4 80be ad6a 09bb 820a 17be 640e 4dbe
00000370: 24be e1bd 6de3 9dbe 7615 be3d 194e 193e
00000380: 3c9d 4dbe d944 fd3d 055d ccbd 6563 67be
00000390: 6912 963d f2e2 85be 439d 8bbd 3a0f 60bd
000003a0: 3f5d 113e 8047 813e 1a9d 57be 54d1 32be
000003b0: 9e8c bfbd 2672 60bd 6644 563e 67df dcbc
000003c0: 4db3 b2bc 454d 5cbe b80a 833e 3332 9ebd
000003d0: bef6 0d3d 3c66 733e f3fd 35be 0752 70be
000003e0: 1cbb 18be ee51 0b3e 8a98 54be 931d 26be
000003f0: c01f 4bbd f11d 8a3e da04 4b3e b6e2 dfbd
0.29477128 -0.030502083 0.09008655 -0.108801216 -0.10140724 -0.14067803 -0.011868688 0.00046721258
-0.24993357 0.22944044 0.06712295 -0.19221881 -0.24814747 0.29026094 -0.03139416 0.011724551
0.17351942 -0.05614959 -0.23535883 0.119410045 0.084779546 -0.25264063 0.053000204 0.0046111327
-0.012221461 0.08159896 -0.021298634 -0.17902362 -0.09314825 -0.24091837 -0.17010038 0.27107006
0.035656292 -0.115206525 0.103198335 -0.26728708 0.3794834 -0.023477737 -0.29323232 0.11093227
-0.08209439 -0.07996592 0.10972738 0.04637084 0.3392563 0.038683616 0.03848522 -0.041026633
-0.2738015 -0.12584753 -0.20861153 0.25030538 0.039513737 -0.28130105 0.1508959 -0.28471804
-0.30414706 -0.1533351 -0.018331008 -0.119258486 -0.2106561 -0.21328223 -0.21330318 0.068415165
-0.17629538 -0.13714947 -0.17485161 0.08527644 0.03500518 -0.032101084 0.053812083 -0.14453186
-0.03389012 -0.16312917 -0.041444533 0.25119853 -0.079353765 -0.20071603 0.26506802 -0.020373084
-0.23455492 -0.13247998 -0.13878593 0.113122664 0.18337405 0.13906392 0.19083431 0.1021852
0.15905207 0.01107371 -0.22396784 -0.03838333 -0.16885264 0.17385076 -0.15581217 -0.11936396
0.23306118 -0.03894575 -0.17872049 -0.21269608 -0.16460535 -0.23152484 0.015439248 0.003919283
-0.15497269 0.25443467 0.08151967 0.19887997 -0.14044334 -0.024823412 0.039425887 -0.05843646
-0.19906524 0.029680746 0.055355817 0.08322486 0.1324887 0.21371454 0.12931524 -0.05923131
0.12016263 0.11321367 0.06700922 -0.16827358 -0.05014772 0.19390209 -0.16684322 0.1569208
0.06353825 -0.2459664 0.1591691 0.116716854 -0.30904597 0.21812594 -0.1761535 0.04962406
0.24668247 -0.12807767 0.032588474 -0.048712388 0.11194235 -0.1591753 0.25259325 -0.076472506
0.07715611 -0.0076544248 0.076590024 -0.14731732 0.03661114 -0.10181538 -0.11914773 0.15647621
0.20344114 -0.29296815 -0.15815851 -0.2267047 0.13096958 -0.24788138 0.06968599 -0.13533519
0.07662938 0.1474806 -0.2122658 -0.16963744 0.14099854 -0.035113074 0.053946674 0.2544531
0.14326894 0.20401782 -0.058519084 0.04924735 0.26082313 0.049433358 0.1716451 -0.23045693
0.028058212 0.23916835 -0.20192975 -0.1745822 0.020635061 0.10086516 -0.23186548 0.009807606
-0.16396265 0.19600642 0.25856885 -0.22441621 0.07177548 -0.19205123 0.057424072 -0.21809228
-0.11159025 -0.14262265 0.24209861 0.19590788 0.06519234 -0.065506235 -0.09127184 0.16396558
0.0566258 0.2921783 0.15390849 -0.27192375 0.101419955 0.037225273 0.034425262 0.005728277
0.07364529 0.22200425 0.12800981 0.07033908 0.003945083 -0.03530602 -0.17853627 -0.2417506
-0.25162005 -0.0020968125 -0.14750102 -0.20025021 -0.110225946 -0.30837575 0.09281437 0.14971198
-0.20079511 0.12366647 -0.099786796 -0.2259651 0.0732773 -0.26149708 -0.06817105 -0.05470202
0.14195727 0.25249863 -0.21056023 -0.17462665 -0.093529925 -0.05479636 0.2092453 -0.026961995
-0.021814013 -0.21513851 0.25594115 -0.077244185 0.03465914 0.23769468 -0.17772655 -0.23468791
-0.14915127 0.13605472 -0.20761314 -0.16222219 -0.049590826 0.26975968 0.1982607 -0.109319136

layers.0.bias f4 [64]
00000000: a959 293d 0000 0000 9e50 d23d d321 23bd
00000010: 3052 5fbd d858 29bd ee54 5a39 0000 0000
00000020: 0000 0000 5a96 a33d cb8c 583d 3383 28bc
00000030: 0000 0000 d375 823d 558a 20bd dd28 ec3c
00000040: 526e d2ba 0000 0000 1cde f8bc 8115 da3b
00000050: 9ae5 4abd 12f9 e83b b56f 9fbc a892 54b9
00000060: fea9 75bd bc29 ab3b 0000 0000 2081 5f3b
00000070: 0000 0000 b7ce 1ebd 0000 0000 e830 803d
00000080: 8c1b 34bd d86c 25bd 611a 8d3b 0000 0000
00000090: 0a00 043e 0000 0000 0d1b 3fbc 4050 c8bb
000000a0: ac03 2abc b5df 14bd e8bc 57bd 4f61 36bd
000000b0: bbb4 fa3d 6f41 ae3c addf 4bbd 4cd1 5fbd
000000c0: 0000 0000 7be7 dfbc c0ae 8dbc a75e fb3c
000000d0: 4807 383c b638 4dbd 079f 02bc 9e68 51bd
000000e0: ddf1 29bd 2731 403c 2823 603c 0000 0000
000000f0: 0000 0000 5353 183c 0000 0000 29e2 17bd
0.041345272 0.0 0.10269283 -0.03982718 -0.05452174 -0.041344494 0.00020821739 0.0
0.0 0.07987662 0.052868646 -0.010285187 0.0 0.063701294 -0.039194424 0.028828079
-0.0016054607 0.0 -0.030379348 0.0066553955 -0.04953537 0.0071097696 -0.019462446 -0.00020272529
-0.05997657 0.005223481 0.0 0.0034104064 0.0 -0.038771357 0.0 0.06259328
-0.043971583 -0.040387005 0.004306123 0.0 0.1289064 0.0 -0.011664164 -0.006113082
-0.010376852 -0.036346156 -0.05267039 -0.044526394 0.12241503 0.021271436 -0.04977386 -0.05464296
0.0 -0.027332058 -0.017295241 0.030684782 0.011232205 -0.050102912 -0.007972485 -0.05112516
-0.041490424 0.011730469 0.013680257 0.0 0.0 0.00929721 0.0 -0.037080918

layers.1.weight f4 [64, 64]
00000000: 68ce e03d e0dc 363e 1b72 903e 5c6d d43c
00000010: 98c4 77bd d3ce 9fbc 938b 32be 14fd 58be
00000020: 729f b3bd 1d73 fd3b c307 3bbe ab04 52be
00000030: 3794 333e ffb3 bdbc 7368 79be f76b e33c
00000040: 5b90 aebd 437b f53d aca3 7e3d ca7e 673e
00000050: 79d3 64be 463f 99bd 7660 063e a4c2 09be
00000060: 2b16 81bd 3a20 7cbe f40d 8c3d fa02 2bbd
00000070: ad36 2dbe 94a9 1c3e 1e77 fb3d 8c80 85bd
00000080: a7aa 8abc d603 e2bd 20a7 a2bd 9c1b 753d
00000090: c5fe a63d 74cd 153e dad9 013e a73b 2c3e
000000a0: 81a8 0b3e ba82 48be daf7 623e 293f c1bd
000000b0: 35aa cbbd 3075 333e 83c9 85be 6f44 eb3d
000000c0: fc91 cdbc 39a6 e2bd 985b 4a3e 3396 43be
000000d0: a135 393d 03a9 023d 53f9 173b ab76 e3bd
000000e0: e3de 973d 3d88 15bc 9394 ad3d 9cb8 563d
000000f0: 4c5c 65be b212 45be 0cef 54be c758 09bd
00000100: 3c58 afbd a2ba 29be 056e 49bd ed8f 28be
00000110: 0733 9e3c 0740 aa3d ac5c 22bd 6d9a 333e
00000120: 489b 0a3d c086 33bd 7c97 3ebe beb9 7a3d
00000130: 68ae 4fbe 80af 5ebd 3e08 f6bc 2e19 cc3d
00000140: ee0e d83c c4a9 1fbe ad23 383e c7cb 6f3c
00000150: cbfe f7bd 9cbc f7bd 4bfb 593d 6a31 13bd
00000160: e8fb 043e ed9d 4c3d dcc3 9cbd cff9 1a3e
00000170: f456 eebd ec5d 01bd f45d 55bb 22ea 37be
00000180: 8e94 c63c 748f 44be a324 a23d 8b52 e1bd
00000190: dba7 b73d 46d8 663b c8db 193d eff0 e73d
000001a0: 69b3 253e 5307 e73d 2ecd d4bd 7dbb 4f3e
000001b0: 9c83 40be fb0f 843d 13bc 01be 52c1 2c3b
000001c0: a3f8 6abd 7918 70bd a24f 17be 0002 613d
000001d0: 7f31 39be cb25 963d 316f 8a3d 9f5b 20be
000001e0: 8d84 ce3d 849f 363d bbe8 e4bd cb35 003d
000001f0: df6a 963d 3a53 333e f8c9 bfbd 2bac 723d
00000200: 21ae acbd 66a4 33be a20f b53e 82ec 03be
00000210: 2163 d63d f1e1 55bd 3563 58be e340 1c3d
00000220: 875d efbc 8498 82bc 6fbb 113e 29d1 44be
00000230: 445d c43d 5b73 50be 265e 8abd b01a 97bd
00000240: 18f5 8fbd 4e9c 603e 5e2c 4c3d 0dd0 b23d
00000250: fbcb 59bd 8d16 fbbc c547 9d3d 848e 29be
00000260: b7d1 d4bd 31e3 bebc c39e 65be 6b92 8b3c
00000270: c5a5 513e f9aa 6a3c d0ba eb3d 0aa0 ecbd
00000280: 6d9d 01be c588 403e f29b 693c 54a8 273e
00000290: f7a0 3f3e 2988 493e d9c3 8e3e f0da 52be
000002a0: d8e0 a7bc 04e7 1dbe 301a aebc fe09 4b3e
000002b0: fb5d 073d c21a 123d 82de d4bc 7af5 ad3e
000002c0: 683a 833d c066 8bbe d9e6 e9bd 3d60 e6bd
000002d0: adeb 6c3e 7108 863e 935d e2bd d133 423e
000002e0: a2bb 67be 1bab d7bd bee4 d53d 93c6 6c3e
000002f0: fffd 523c 0122 7dbe 48b2 79be 7c55 34bd
00000300: 48b1 85bd 378c 35be fa49 36bd e94e 2a3e
00000310: 1647 1f3e 6055 433e 9fd7 bc3d cc46 2d3d
00000320: 410f 393e 4a7c 42be 4161 8a3d 20c4 1f3d
00000330: 5281 c73d 7823 03be 7e11 d4bb 7ab5 923d
00000340: 98aa 7c3d 41a8 37bd 9bdc 40be 7016 01bd
00000350: c8e6 073d af6a 44be 441c 26be 53ce 143e
00000360: f556 153e 2613 4ebe a483 0b3e ee74 e7bd
00000370: 877d 3cbe 86b9 0dbd 543a 123d 8b2a 1cbe
00000380: b57e d9bd e273 01bd f5e0 3abd 9f62 8a3d
00000390: 8769 083e 56f6 1d3e d699 e93b a129 3e3e
000003a0: 4b3e b83d f876 4fbe 382e 493e 1de8 4bbd
000003b0: 151b 7f3c 4ef6 3bbe 8477 4ebe 8338 a73d
000003c0: 4fd6 e83d 0348 49be cded f03d 743d 38bd
000003d0: faa6 3d3d bb12 a4bc 8a3f f5bd 3ea3 a0bd
000003e0: 5034 0fbe 5904 2e3c b860 223d 2ee7 01bd
000003f0: ac9e 4dbe 3b6e 073e e3c5 c7bd 8821 2fbe
0.10976869 0.17857695 0.28212056 0.025931053 -0.06049022 -0.019507801 -0.17436056 -0.21190292
-0.08770646 0.00773467 -0.1826468 -0.20509593 0.17537008 -0.023157118 -0.2435625 0.027761443
-0.08523627 0.11986401 0.06216781 0.2260696 -0.22346295 -0.074827716 0.13122734 -0.13453156
-0.06303056 -0.24621668 0.06838599 -0.041750886 -0.16915388 0.15299064 0.12278579 -0.06518659
-0.016927077 -0.11035888 -0.07942033 0.059840783 0.08154062 0.14629155 0.1268076 0.1681963
0.13638498 -0.19581118 0.2216486 -0.09435875 -0.09944574 0.17525172 -0.26130304 0.11487662
-0.025094025 -0.11066861 0.19761503 -0.19100265 0.04521716 0.031899463 0.002318938 -0.111066185
0.07415559 -0.00912672 0.08475604 0.05242215 -0.2239849 -0.19245413 -0.20794314 -0.03353193
-0.08561751 -0.16575101 -0.04917719 -0.16461153 0.019311441 0.083129935 -0.03963916 0.17539378
0.033839494 -0.04382968 -0.18612474 0.061212294 -0.20281374 -0.05436659 -0.030033227 0.0996574
0.026374307 -0.15592104 0.17982359 0.014635987 -0.12109145 -0.12096521 0.053218167 -0.035935797
0.1298672 0.049955297 -0.07654545 0.15134357 -0.11637679 -0.03158371 -0.003255722 -0.17960408
0.024240758 -0.19195348 0.07917144 -0.11002072 0.08967563 0.0035224124 0.037563115 0.11325251
0.16181721 0.11280694 -0.103906974 0.20286365 -0.18800205 0.064483605 -0.12669401 0.0026360345
-0.057366025 -0.05861709 -0.14776471 0.054933548 -0.18085288 0.07331427 0.06759489 -0.1565995
0.10083876 0.04458572 -0.11177202 0.0313013 0.07344603 0.17512217 -0.09364694 0.059246223
-0.0843165 -0.17543182 0.3536349 -0.1288319 0.10468126 -0.052217428 -0.21131594 0.03814782
-0.029219402 -0.015941866 0.14231656 -0.19220413 0.095881015 -0.20356505 -0.06756239 -0.07378137
-0.0702917 0.21934626 0.049847 0.08731089 -0.053173047 -0.030650401 0.076797046 -0.16558272
-0.103915624 -0.023301693 -0.22423844 0.017037591 0.20473392 0.01432299 0.11510241 -0.115539625
-0.1265771 0.18802173 0.014258372 0.16372806 0.18713747 0.19680847 0.27883795 -0.2059133
-0.020492956 -0.15420157 -0.021252722 0.1982803 0.03304861 0.03567005 -0.025985006 0.33976346
0.064076245 -0.2722683 -0.11420984 -0.11248825 0.23136778 0.26178315 -0.11053004 0.18965079
-0.2263017 -0.10530683 0.1044402 0.23122625 0.01287794 -0.24720003 -0.24384415 -0.044026837
-0.06527954 -0.17729269 -0.044504143 0.16631664 0.15554461 0.19075537 0.09220814 0.042303845
0.18072225 -0.18992725 0.06756831 0.0390054 0.09741463 -0.12806499 -0.006471812 0.0716352
0.06168613 -0.044838194 -0.18834154 -0.03151554 0.033179075 -0.19181322 -0.1622172 0.14531831
0.14583953 -0.20124492 0.13624436 -0.113015994 -0.1840726 -0.034600757 0.035700157 -0.15250604
-0.106198706 -0.031604655 -0.045624692 0.06757092 0.13321505 0.15426001 0.0071289344 0.18570568
0.089962564 -0.20260227 0.19646537 -0.049781907 0.015570422 -0.18355677 -0.20162779 0.08165076
0.11369001 -0.19656377 0.11764107 -0.04498048 0.04630182 -0.020028463 -0.1197501 -0.07843636
-0.139848 0.010621154 0.03964302 -0.03171461 -0.2008006 0.13225643 -0.09754541 -0.17102635

layers.1.bias f4 [64]
00000000: 0000 0000 0000 0000 12eb 503d 0000 0000
00000010: 0000 0000 0000 0000 0000 0000 a8df 00bd
00000020: 0683 c1bc ccd0 14bd 0000 0000 8519 c6bc
00000030: ec4a 8a3c 0000 0000 1c4f 12bd 0000 0000
00000040: 37e5 ff3c 7e67 f43c f5e4 e03c 63de 943c
00000050: a2de 0ebd d312 8c3c dccb 6e3b e197 e8bc
00000060: 0fdc f1bc d6c9 0bbd 20fd bebc 5b72 8d3c
00000070: 8237 b73c 7226 dabc aefe f5bc 8a7c f7bc
00000080: 0000 0000 8d95 efbc 91af 9a3c d7f3 4bbd
00000090: 3e2d 7e3c 36f6 5b3c 60bc 47bc 0000 0000
000000a0: 4ae8 36bb 0000 0000 d940 c03d 0000 0000
000000b0: 0000 0000 f4dc 8cba b38f 41bd f7b4 033d
000000c0: 7cf0 fbbc 54a6 c4bc 0000 0000 4f91 51bd
000000d0: 554c 7b3c c413 3c3d 0000 0000 0000 0000
000000e0: 6adc f5bc 9fb5 febc efbc 24bd deef 943c
000000f0: 26f1 f5bc c92b 05bd d1f2 32bd f87b 943c
0.0 0.0 0.05100543 0.0 0.0 0.0 0.0 -0.031463295
-0.023622047 -0.036331937 0.0 -0.02418209 0.016881429 0.0 -0.035719976 0.0
0.031237228 0.029834505 0.027452925 0.018172449 -0.034880288 0.01709882 0.0036437428 -0.028392734
-0.029523877 -0.034128033 -0.023314059 0.017266443 0.022365335 -0.02662966 -0.030028667 -0.030210752
0.0 -0.029246116 0.018882545 -0.04979309 0.015513716 0.0134254005 -0.012190908 0.0
-0.0027909451 0.0 0.09387369 0.0 0.0 -0.0010747002 -0.047256183 0.032155003
-0.03075432 -0.024005093 0.0 -0.051163968 0.015338023 0.045917287 0.0 0.0
-0.030012328 -0.031092463 -0.040219244 0.018180784 -0.030022215 -0.03251246 -0.0436886 0.01812552

layers.2.weight f4 [64, 2]
00000000: 27d6 10be fcde 13be 28f8 033e 7115 f5bd
00000010: 0639 88be 04fd f73d 1f41 e2bd 6ec4 4a3e
00000020: 38d6 ebbd cc09 18bd 4a04 8d3e 6d22 863e
00000030: c5f8 61be 037a 833e 60bd 463e 25e0 1f3e
00000040: 1d87 c43d 36bc 47be a7e4 41bd ab5c d8bb
00000050: 24cc 223d d721 1fbd 36aa 803e 7350 bc3c
00000060: 4455 163e 948a 603e 9825 973e 1bb5 95bc
00000070: 4fef 433e 7fc2 f53d 6efa 7abe 5324 95bd
00000080: 66d7 66be cd4b dabd 869d 9bbd d757 823e
00000090: c2aa 6dbe 67c2 a7bd 9d2f 1dbe f7a0 603d
000000a0: 927d 19be ca4d 47be c9fb 173b 88f7 e63d
000000b0: f2ff 0bbe 4638 63be 9a3e 6e3e 2717 143e
000000c0: 7130 bdbd f94f 38be a6f5 473e 8328 01be
000000d0: f269 ee3d 0b31 84be 5614 b7bd 7399 db3c
000000e0: df90 54be 29f5 49be a858 af3d c326 61bd
000000f0: 6503 183e de8c db3d dd80 643e d1ea 133e
00000100: 046c 903e 8de1 013e da36 99bc 4c31 ed3c
00000110: c5e2 c4bd 16b8 893e 316f 2e3e 5b5a 82be
00000120: fbdf da3c 896f bd3d 43cc ed3c 34f5 4b3e
00000130: 4c10 5bbd d536 87be 31e6 55be bddb 113e
00000140: 0069 5f3e 3709 013d 8190 40bc 6f9b d3bd
00000150: 5d32 7ab9 1580 9fbe 1634 5bbc 2be9 24bd
00000160: 8ab3 6ebe 5ebe 90bd 06b8 b0bd 7625 483e
00000170: d6bd 813e c4e5 753e d3d3 82bd ea8d 493e
00000180: d9a3 0ebe cf3a 35be bf37 0a3e 5c4e 19be
00000190: c3ba 293e ef27 193b 30d4 edbd 4094 5fbe
000001a0: ec11 69be bdcc 51be 598a 92be 5db7 db3d
000001b0: 087f c93d c870 593e d1fb 7c3e d549 6abe
000001c0: 7367 efbc a150 463c 7147 223e ab65 c73d
000001d0: e410 1fbe c487 78be d701 6bbe 610b a83c
000001e0: 09ac 1d3c 4ba4 84be 3126 3abe e3ae 68be
000001f0: d4f8 33be 21af 60be 5ce3 f0bd 460e ec3d
-0.14144193 -0.1444053 0.12887633 -0.1196698 -0.26606005 0.12108806 -0.11047577 0.19801494
-0.11515468 -0.037118718 0.27542335 0.2619814 -0.22067554 0.25679025 0.19408178 0.15612848
0.09596083 -0.1950539 -0.0473372 -0.0066028438 0.039745465 -0.03885063 0.2512986 0.02298758
0.14680964 0.21927863 0.2952087 -0.018274834 0.19134258 0.11999988 -0.24509594 -0.07282319
-0.22543105 -0.10658989 -0.075984046 0.2545764 -0.2320967 -0.08191376 -0.15350194 0.054841008
-0.14989308 -0.19463268 0.0023190847 0.112776816 -0.13671854 -0.22189435 0.23266068 0.14461957
-0.09237755 -0.17999257 0.19527301 -0.1261311 0.11641301 -0.25818667 -0.08939426 0.026806569
-0.20758389 -0.19722427 0.08561832 -0.054968607 0.14845045 0.10720228 0.22314782 0.14445044
0.2820741 0.12683697 -0.018702913 0.02895417 -0.09613565 0.2689826 0.17034604 -0.2545956
0.02671813 0.09249789 0.029028064 0.19917756 -0.05348234 -0.2640902 -0.20888592 0.1424398
0.21817398 0.03150293 -0.011753202 -0.10332381 -0.0002386062 -0.31152406 -0.0133791175 -0.04026143
-0.23310676 -0.0706756 -0.0862885 0.1954554 0.25340146 0.2401343 -0.063880585 0.19683042
-0.1392969 -0.17698215 0.13497828 -0.14971298 0.1657515 0.002336975 -0.11612737 -0.21833897
-0.22760743 -0.20488258 -0.28621176 0.10728333 0.098386824 0.21234429 0.24705435 -0.22879727
-0.029224133 0.012104184 0.15847565 0.097361885 -0.15533787 -0.2427054 -0.2294992 0.020513238
0.009623536 -0.25906596 -0.18178631 -0.22722964 -0.17575389 -0.21941806 -0.11762115 0.1152616

layers.2.bias f4 [2]
00000000: 2de9 8abc 2de9 8a3c
-0.01695689 0.01695689
